MNIST/results/model.pth (torch, 89851 bytes, 8 tensors)

conv1.weight f4 [10, 1, 5, 5]
00000000: b0dc 723d a5bb 9d3d d0b0 213e e120 a7be
00000010: 89de 9fbe a785 dd3d a5fe 0d3d 1df0 9c3e
00000020: 7c49 6ebe aa2a 6f3d abf8 bebd e27f 21bd
00000030: b979 b43e 50cc d23e dadb bb3d 1b6d b0be
00000040: e453 9a3d 6014 a1be 85e7 f53d c2ca 523d
00000050: 2ada d6be 3099 dabe 66bf 10bf 0ddf 78be
00000060: 21f2 0ebe 1299 963d 6f99 e33d bc53 cdbd
00000070: ff37 78be 3bbd 2abf b2f7 333e dc3a 373e
00000080: b364 083e 959a 103e 976f a5be e8be cf3e
00000090: 4925 f9bd 5c23 84bd 8d44 45be 5373 debe
000000a0: b90d 0fbe 201d 343e 1d2d b1bc abae a1be
000000b0: 899d 3b3d f720 b5be a37a 98be e5ad e8be
000000c0: 8875 22be 6629 51bd f924 5dbc 8729 cc3d
000000d0: b03b 5abe 66d7 03be 5022 49bd 0dfc c0bd
000000e0: 4317 26be 9e73 87be 2ec9 ccbd 6342 26be
000000f0: d4c1 91be 8277 ecbd 7d9a 12be 6aa9 80be
00000100: 32c4 acbe bf71 1ebe 30d5 4cbe 897d 1b3e
00000110: 6059 00bf 948e babe e4f6 183d 5345 76be
00000120: cb2f cfbe bf42 1dbe 3051 853d 5436 edbe
00000130: 52f0 ff3c 261b 233e 88f3 0dbd e68f a4bd
00000140: 8f54 45bf 84ae f6be 2365 05be b214 72bd
00000150: 6f70 a6be 28d1 613d 5585 a83c 31b4 8ebe
00000160: d3ac 71bd 7a28 80bd 0d9d aa3d 0bc0 a1be
00000170: 505a febe a51b cbbd 4057 0e3d 6a59 a93e
00000180: 635e 843d e1d5 96be 4d50 c0be 7f9b 04bf
00000190: f102 7cbc 700a b6be 4b79 03be 6556 af3d
000001a0: 4fe9 a7be f44e 8cbd b899 9b3d ffef 5cbc
000001b0: 8797 203d f99b 8f3d 3caa 5fbe 82f8 71bb
000001c0: c7ab 1a3e a2ab 81be c769 17bc c553 f0bd
000001d0: 7f16 30bd 08ae 9ebe 2597 8bbd 6f89 13be
000001e0: 22c4 9fbe 763c 263d 9f03 28bd 1c77 53bd
000001f0: f442 90bd 17df 86bd 5dd8 30be da70 89be
00000200: 19fd 26be 0626 cabd 724d 253e 2f0c 89be
00000210: 5c0b fabe 6da5 653d a262 ce3d 22ab 7b3e
00000220: b353 c2be 3933 16be 28d2 383c 7c03 f13d
00000230: 6bbe 633d 4665 bdbe b22b 413e c27a cebc
00000240: 1d91 793e 6070 1ebe 4e54 fbbe 14dc 3fbe
00000250: 1f85 033d 72c5 923e bb19 b5be afe4 713e
00000260: 15a6 413e 6d22 03bd c9c2 02bd 4519 9ebe
00000270: d424 a53b eb35 7f3e 33d3 003d c48d 03bf
00000280: caf0 5cbe e071 b5be b880 cfba 6254 89be
00000290: bd6a 25bf 0d63 103d e564 b2bd b7c3 14bf
000002a0: 605f 16bf 22f1 f5be ed52 56be a0db 55be
000002b0: a787 83be 4ce8 c13d 94f7 103f d435 c2be
000002c0: cbc4 673d 5e39 0dbd 8b98 913d 8647 2c3e
000002d0: 476c 42bf 3c32 c8be 3595 0fbf 05d7 24bf
000002e0: bd64 8bbd 13fb 01be 514b 623e a4c9 afbe
000002f0: 2f6a 25be e23e 41bf 0c95 40bc 5cb7 b73d
00000300: b287 d03d 8cf5 9f3b c03f 3abe be0a 213e
00000310: 8991 bcbd 8c68 753e 28db aa3e 4e71 7e3e
00000320: f30a b3be f02c d7bd 88dc 4d3d 203a 2fbe
00000330: 97f0 133f e7f5 39bd d1e1 5fbd 3f0c d2be
00000340: 9371 cdbd be83 f03d c259 d83b ee26 16be
00000350: 54fc 8dbe 011a 18bf 01dd 553e b750 bfbd
00000360: 4f60 b4bc 4a12 f93d 3d49 a8be 3f83 b9be
00000370: ab51 82bd 33bf 83bd 3cee 0fbe 9e74 18be
00000380: cf4c ffbd 844e 12be af75 3fbd f296 bfbc
00000390: 8d4f 3e3e 84ce 8a3e 7c5e 623e 6918 7d3e
000003a0: 52b1 8d3d d260 883d 06a8 0abe 4dd1 88be
000003b0: 00ed d23d 4c3f 1bbe 8548 e23e 4699 38be
000003c0: d990 f5be bdbc e63d ec70 2c3d 8cb8 b7be
000003d0: ea81 1dbf dce8 f6be 7110 17bf 6a4d 3ebf
000003e0: f4ea e9bd fff8 5f3c
0.059292495 0.07701806 0.15790105 -0.32642272 -0.31224468 0.10816508 0.034666676 0.30651942
-0.2327022 0.058390297 -0.093247734 -0.0394286 0.35249117 0.41171503 0.09172793 -0.3445824
0.07535532 -0.31460857 0.120070495 0.051462896 -0.4196332 -0.42694998 -0.5654205 -0.24303837
-0.13959552 0.073534146 0.111132495 -0.10025737 -0.24240111 -0.6669499 0.17574957 0.17893547
0.13319664 0.14121468 -0.323117 0.40575337 -0.12165315 -0.06452057 -0.19264431 -0.4344736
-0.13970079 0.17589235 -0.021627957 -0.31578574 0.045804534 -0.35376713 -0.29781064 -0.4544517
-0.15865147 -0.05106487 -0.0134975845 0.09968858 -0.21311831 -0.12875137 -0.04910499 -0.09423075
-0.16219811 -0.26455396 -0.099993095 -0.16236262 -0.28468192 -0.11546232 -0.14316745 -0.25129253
-0.33743435 -0.15473078 -0.200032 0.15184607 -0.50136375 -0.36436903 0.03734483 -0.24049883
-0.4046615 -0.15357493 0.06509626 -0.46330512 0.031242523 0.15928325 -0.034656078 -0.08035259
-0.7708215 -0.4818002 -0.13026862 -0.059101768 -0.32507655 0.055131108 0.02057139 -0.2787185
-0.05900271 -0.0625772 0.08330736 -0.3159183 -0.49678278 -0.09917382 0.034751177 0.3307603
0.06463315 -0.29460052 -0.37561265 -0.5179977 -0.015381561 -0.35554838 -0.12839238 0.085614
-0.32795188 -0.068509966 0.07597679 -0.013484954 0.039207008 0.07012171 -0.21842283 -0.0036921804
0.1510459 -0.25326258 -0.009241528 -0.11734728 -0.042990204 -0.3099215 -0.06815938 -0.14407896
-0.31204325 0.040585004 -0.04101908 -0.051627263 -0.0704402 -0.0658552 -0.17270036 -0.2684391
-0.16307487 -0.09870534 0.16142824 -0.26767108 -0.48836792 0.056065965 0.100774065 0.24577
-0.37954482 -0.14667977 0.011280574 0.11768243 0.05560152 -0.36991328 0.18864325 -0.02520502
0.24371763 -0.15472555 -0.49087757 -0.18736297 0.032109376 0.28666264 -0.35371193 0.23622392
0.18911012 -0.032015253 -0.031924043 -0.30878654 0.0050397906 0.24922912 0.031451415 -0.5138819
-0.21576229 -0.35438442 -0.0015831208 -0.2682219 -0.64615995 0.035250712 -0.0871065 -0.5811114
-0.5873928 -0.48035532 -0.20930071 -0.20884562 -0.25689432 0.09468135 0.56627774 -0.37931693
0.05658416 -0.034478538 0.071091734 0.16824159 -0.7594647 -0.39100826 -0.56087047 -0.64390594
-0.06806324 -0.12693433 0.22099043 -0.34333527 -0.16153787 -0.75486577 -0.011754286 0.0897052
0.10182132 0.0048815664 -0.18188381 0.15726754 -0.09207446 0.23965663 0.33370328 0.2484791
-0.3496929 -0.10506618 0.050259143 -0.17112017 0.57788986 -0.045400526 -0.054658715 -0.41024968
-0.10031428 0.11743878 0.006602497 -0.14663288 -0.27731574 -0.5941468 0.20885088 -0.09341567
-0.02201858 0.121616915 -0.32868376 -0.36232945 -0.06363233 -0.06432953 -0.14055723 -0.14888236
-0.12465822 -0.14287764 -0.04674309 -0.023387406 0.18585034 0.27110684 0.22106355 0.24716343
0.06918587 0.06659092 -0.13540658 -0.26722184 0.102991104 -0.15160865 0.44195953 -0.18027219
-0.47962072 0.11266468 0.04209988 -0.35882986 -0.6152636 -0.48224533 -0.5900946 -0.74336874
-0.11421767 0.013670205

conv1.bias f4 [10]
00000000: c494 16c0 1e0c eebf b6b0 1fc0 9fb2 f8bf
00000010: 52e0 d2bf 5b70 c3bf 5e83 02c0 4de2 09c0
00000020: 4e3c ebbf eb51 c7bf
-2.35283 -1.8597448 -2.4951606 -1.9429511 -1.6474707 -1.5268663 -2.039268 -2.1544373
-1.8377779 -1.5571874

conv2.weight f4 [20, 10, 5, 5]
00000000: 0fa5 8c3e ac0b 293e 9670 01be 0c3f 253f
00000010: 0fab f13e fa29 9b3e ad3f 093f 62e2 f3be
00000020: 11c7 bf3c c5af 91bd 35f0 923e 32c1 c9be
00000030: 415d bdbe 6d66 05bf e9b3 043d 927d 8a3e
00000040: 3acb 3a3f 2e98 41be eb6e 733e ce46 19bf
00000050: 108d 08be fb4b fbbe 2b42 08bf 5054 a93d
00000060: 7a8b edbe 4281 80bf a5a3 6d3e 2b18 033e
00000070: a987 7d3e f7f0 413f 2187 a43e e6c4 e93e
00000080: d4ec 113f 26cc 253f 8e6b 853d 2a06 94bf
00000090: 0128 85be 168f d4bb 5ca1 fb3d d2c7 333f
000000a0: 6b28 bfbf 07ff bcbe 8933 71bf cfc3 26bf
000000b0: eab6 28bf 1583 8cbf 6dde d6be 9608 f53d
000000c0: 140d d8bd 9c8c 2cc0 3156 76be 18ca 343f
000000d0: d391 b7be 5e19 dd3d e6d8 0c3e bc65 523d
000000e0: 9bd0 8c3e 0ec7 c7bc 17c4 73bc 4145 823e
000000f0: cda4 e4be 414a f1be 9a6c 5e3e 85ec fa3d
00000100: 1b40 51be dc99 34bf cd4f 3bbf cf1d d0bf
00000110: 6017 3dbf c9d6 863c d0d6 513e c3ad 1fbf
00000120: 8a09 5fbf d196 c2bc 489c 90bd 891c fa3d
00000130: d582 88bf fa4b 2bbe 7115 ccbd 9426 82bf
00000140: 80b2 cebf 80cd 53bf 11cc 75bf f3c4 93bf
00000150: 9b7f 6ebe 610a 3ebf 15ee 19bf a9f0 ee3e
00000160: 6ecd 5a3f 2a3e b5bf 532c e3be dfec 1e3f
00000170: 2afb fa3e 30db 873e 86e6 e7be 8636 633f
00000180: c877 803e 63c5 ddbd bfd6 7e3e 8fc8 e03d
00000190: 85bc afbe 8c42 d9bd c324 bf3e fdf4 273f
000001a0: 52a6 aabc b52e 3a3e c0bc c43d 11ab cdbc
000001b0: 0502 073e 59f6 8b3e 4c25 99be 7ef2 3bbf
000001c0: e8ae 3dbf 57ac c2be d747 f8be a466 51be
000001d0: 3c59 fbbd 0d76 673e 4ff2 91be 03d0 35bf
000001e0: b50e 2fbe 32f4 11bf 17b7 e4be 7680 8bbe
000001f0: ae70 493e 9b4c afbe 9638 513e 7acc 90bb
00000200: d080 c53e ecc0 053c 37d1 50bf 8826 ab3e
00000210: d022 263f 2d8b 913e 756e 21c0 edb0 73bf
00000220: 9f55 dabe 5bb0 3dbf 566a 99bf 8a3c f83b
00000230: 5f3e 06c0 0953 cabf 32bc 89bf f738 aebe
00000240: 9f13 f43e 1e17 a23e 402e 743c d81b 5ebe
00000250: 84bc 05bd 6d64 1fbf c3c5 49be f01a c03e
00000260: 147f 9dbc fcd7 ad3e 2645 593e 5817 3bbe
00000270: 6040 323f 3f1f 373e 094b 9abb e93e 1ebf
00000280: 10e2 7bbf 2c17 ddbe 14d6 7cbe fa45 a43e
00000290: 7b34 1abe c1f1 d53d 3e27 1a3f 6611 403e
000002a0: 9759 333f 46a7 75be 6701 2f3e a7d6 84be
000002b0: 6f51 51bf c034 a53e ff37 393f efcf 9d3e
000002c0: 8913 8bbe 3eed 8e3c 24b2 d73d e59d 4a3e
000002d0: 7467 57bf c7d8 bcbe 2d5a 42bf b8f5 b03d
000002e0: ad97 e5be c5ff acbe 35f1 82be 70b8 0cbe
000002f0: 0d19 0ebe 6d5d 21bf d8a1 b93e 39f3 90bd
00000300: c900 dfbd c01d c13e cc37 a63d f1ec 07bd
00000310: 12d1 e53c 6e0f a33d dd20 42bf 9d52 d53d
00000320: bbd6 81be 4b19 bc3e 4913 e7be 4e02 9abf
00000330: bceb bbbe 132c 293e c8ab 8dbc 8f6a c13c
00000340: e390 393f 3e0d 603f 4113 3d3e 1bbc b93d
00000350: 008d fc3e a6a3 a2be 7d07 f9bc 0e76 503f
00000360: 8032 39be c82e a4be b222 b6bf 664c 01be
00000370: 4960 4dbf 5f0f c3bf 75ae 17bf 127d b63e
00000380: 3439 3e3f c816 f33c 6003 a03d a66a bebe
00000390: 0a6b 143e 85f3 1d3e 64c1 ea3d e3d7 673e
000003a0: 9162 003e c6e2 f6bd 86d2 473f b424 0cbb
000003b0: 352b 5b3e d83b 703d e66c c93e 7d5f 8d3d
000003c0: 3902 d33e e70c a43e a4f3 9fbd dcf6 e4be
000003d0: f747 9cbe 452b 5abe 6823 e0bf c13b c7bf
000003e0: 57c8 0bbe d10a a53b 5db7 ccbd 7089 32bd
000003f0: 2ad7 dbbd 9a4c 81bc ca0c c2bc af47 fabd
0.2746968 0.16508359 -0.12640604 0.64549327 0.4720082 0.30305463 0.53612787 -0.47633654
0.023410352 -0.071136035 0.28698888 -0.3940521 -0.3698521 -0.52109414 0.03239814 0.27048928
0.7296635 -0.18905708 0.2377278 -0.59873664 -0.13335061 -0.49081406 -0.53225964 0.082680345
-0.46395475 -1.0039446 0.23206957 0.12802188 0.24758781 0.7575831 0.32134345 0.45658034
0.57001996 0.6476463 0.06514655 -1.1564381 -0.26007083 -0.0064867837 0.12286636 0.70226777
-1.493421 -0.3691332 -0.9421926 -0.6514253 -0.65904105 -1.0977503 -0.41966572 0.11964528
-0.105493695 -2.696082 -0.24056317 0.7062087 -0.35853443 0.10795854 0.13754615 0.051366553
0.27502903 -0.024386909 -0.014878294 0.25443462 -0.44656983 -0.47126964 0.21721116 0.12252144
-0.2043461 -0.7054727 -0.7316864 -1.6259097 -0.7386379 0.01645984 0.204921 -0.62374514
-0.8712393 -0.023753555 -0.07061058 0.12212474 -1.0664927 -0.16728202 -0.09965027 -1.0168023
-1.6148224 -0.82735443 -0.96014506 -1.1544479 -0.23290865 -0.74234587 -0.6012891 0.46667984
0.8546971 -1.4159596 -0.44369754 0.62080187 0.49019748 0.26534414 -0.45293063 0.8875507
0.25091386 -0.10828664 0.24886607 0.109757535 -0.34323516 -0.10608396 0.37332734 0.656082
-0.02083126 0.1818188 0.09606314 -0.025105985 0.13184364 0.27336386 -0.29911268 -0.7341689
-0.7409501 -0.3802211 -0.4849231 -0.2044931 -0.122728795 0.22603627 -0.2850518 -0.71020526
-0.17095454 -0.5701324 -0.44670936 -0.27246445 0.1967189 -0.34238133 0.20431742 -0.0044189068
0.3857484 0.008163672 -0.81569237 0.33427835 0.6489687 0.28426495 -2.5223668 -0.9519184
-0.4264345 -0.7409722 -1.1985576 0.007575576 -2.0975568 -1.580659 -1.0760558 -0.34027836
0.4767122 0.31658262 0.014903605 -0.21690309 -0.032650486 -0.6226261 -0.19704346 0.37520552
-0.019225635 0.33953846 0.21217784 -0.18270624 0.6962948 0.17883013 -0.004708652 -0.61814743
-0.9839182 -0.4318174 -0.2469104 0.32084638 -0.15059082 0.104465015 0.6021613 0.18756637
0.7005858 -0.23989591 0.17090379 -0.25945017 -0.8176488 0.32266808 0.7235107 0.30822703
-0.27163342 0.01744711 0.105320245 0.19786794 -0.8414223 -0.36884138 -0.7591885 0.08640617
-0.44842282 -0.33788887 -0.2557465 -0.13742232 -0.13876744 -0.6303318 0.3625629 -0.07077641
-0.10888822 0.3771801 0.08116111 -0.03318495 0.028053794 0.07961927 -0.75831395 0.10416148
-0.2535914 0.36738047 -0.451319 -1.2031953 -0.3670329 0.16520719 -0.017293826 0.023610381
0.72486705 0.87520206 0.18464376 0.090690814 0.49326324 -0.3176548 -0.030399079 0.8143014
-0.1808567 -0.3206694 -1.4229338 -0.126268 -0.80225044 -1.5239066 -0.59250575 0.35642296
0.74306035 0.029673949 0.07813144 -0.3719074 0.14493957 0.15424927 0.114626676 0.22640948
0.125376 -0.12054972 0.7805561 -0.0021384181 0.21403201 0.05865082 0.39340895 0.069029786
0.41212633 0.32041094 -0.07810143 -0.4471959 -0.30523655 -0.21305569 -1.7510805 -1.556511
-0.13650642 0.00503669 -0.09995911 -0.043588102 -0.10734399 -0.015783597 -0.023687739 -0.12220704

conv2.bias f4 [20]
00000000: 2fac 07bf 2ef4 86bd 4ece b53d 928b 653e
00000010: b568 c1be a78c 8bbf 905f 063e 4f92 e63e
00000020: 2756 953e 1cd8 c3be c80d 51bc d694 38be
00000030: fe44 19bf 6813 cdbe 19d4 84be c887 febe
00000040: cc6b 9cbe 331d b8bd 3234 02be ede0 b7bf
-0.52997106 -0.06589542 0.0887724 0.22416523 -0.37775198 -1.0902299 0.13122392 0.450335
0.29167292 -0.38250816 -0.012759633 -0.18025526 -0.598709 -0.40053868 -0.25943068 -0.49712968
-0.30550992 -0.08989944 -0.12715223 -1.4365517

fc1.weight f4 [50, 320]
00000000: 4667 09bf 5487 67bf 85f9 5ebf face 1abf
00000010: 3770 0e3d e5ed 933c b3fb 38bd 6a26 3fc0
00000020: 9c00 d93e a1b6 503d f789 96bf 5350 d9bf
00000030: a1cc 4abe a9c2 f4be 4b12 3abe c5b8 ad3e
00000040: c9fa 013d d5c1 8e3d 0d55 143d a76b b53d
00000050: fc90 8c3d 5713 893c 6db5 e13d c13d 9d3d
00000060: 988a b13d 9a61 ecbd 2b46 dd3d 889a 9d3d
00000070: 33f8 83bd 6c4c c03c fb52 913d f0ad a63d
00000080: 1526 b1bf 8bda 80be e153 25be 6e26 11bf
00000090: b420 083e cdad d8bf a7de 833e e906 c1bd
000000a0: bc10 453f 1e4d 513e 4225 3a3f 1d7d 16bf
000000b0: 2569 09bc 076e e83f 5da0 0040 4536 95bf
000000c0: c7ba b7be 878b f1be e7e1 c0bf 9ffb 98bf
000000d0: 753a d73e 72b2 f6bd a4a7 d63e e9f0 fbbd
000000e0: 10e3 7d3c 88e4 623e 250a 583f 573f 823f
000000f0: ccdc a4be dfc4 b43e 921f dfbd a211 57bf
00000100: 7d6c 013d 7c75 413e f9a6 83bf d25e 94be
00000110: e69c 01bf 7c96 ccbe cbe2 613f a24e 8e3e
00000120: 95b0 59be 9e77 b93d 2fea cfbd fc8b 60be
00000130: b1da d43d c528 703d 9371 06bf 6e3f eabd
00000140: 26fb 953e a409 743e 8b8c c8be ace5 5f3f
00000150: bd3a 923f 24ac 98be 7970 e43e 9bb7 2f3f
00000160: 9518 8cbc 1c40 66be d177 1bbe 1f4d 043e
00000170: 19c1 e83e 6146 4c3e 8903 633f faaa 1dbf
00000180: 1364 8ebf 4398 3fbf 8c33 943d 7e45 9ebe
00000190: 53e3 a5be 9836 f6bd 2a31 05bf 81e8 713e
000001a0: b914 7e3e a90e 5a3f 53e9 aabc f4bd 47bf
000001b0: 255b da3c 1ef1 c43d 54d4 383f 226f ac3e
000001c0: f9de cfbd 4a7e 4ebe 7368 54bf 906e aebe
000001d0: 58d6 13bd 865a 753e ead7 363f 3565 6b3f
000001e0: 9658 8d3e 4309 08be c3f4 a0bf 3eef af3e
000001f0: 4b6b 383f db11 65bd cbef d73e 6154 afbe
00000200: b056 b13e c518 0dbf 25bc 17bf ea6d d4be
00000210: 3c62 6cbf f068 72be 0de2 9cbe fe5f 04be
00000220: c0d6 103f 4cfb 6c3f c0de cebe f83e ec3d
00000230: 1bd8 473f 4f63 253f 4246 99bf fa5c c1be
00000240: 3d95 4e3d 230d 513d 854f 8f3d 71d8 933d
00000250: cfca 4abd a467 2fbd 6152 723e e99e b33e
00000260: 3fdc 01bd d864 aebb c796 5fbe a549 84bd
00000270: ee4e 993d 17c3 6e3d be30 8b3d b1af ac3d
00000280: a86a 24bd d8c1 9bbe 1a34 95bd e9ff 8c3e
00000290: fae7 463e 4430 8a3e d234 183f 8fbf 9f3e
000002a0: 051c 493e 7c14 77bf c869 49be 37e1 94be
000002b0: 4ac1 ffbd d59e 6cbf 3760 43bf 9698 62bf
000002c0: 1cdf 16bf c7b2 07be 5e02 20bf d92e c2be
000002d0: 0d0f 4ebf aef4 70bd 0ef7 45bf 4a8f 26bf
000002e0: 04de 9a3e 2656 1c3f 96ae 44bf e02c 5fbe
000002f0: ee9d a33e a7cc 67be f5e3 853f 6ed1 5f3f
00000300: f679 063e 06ee bd3b dece b83b ccf2 18bd
00000310: 29f0 7cbd f2bb d03c 823d 22bd d1c3 36bd
00000320: 6718 a2bd 4523 c2bd 05bd 9bb9 03b2 82bd
00000330: 3301 2bbd 202c 0abd b8b3 babc 8b9f f1bc
00000340: d688 983e a548 2e3f a204 233e aa65 c13d
00000350: 12ca 89bf 5180 febd 29d9 dabd 92a6 f4bf
00000360: e450 81bf 9c7f 893e 3726 8e3f 3201 81bf
00000370: cd04 7fbf 0d65 23be 4367 75bf ac79 06bd
00000380: 43dd 79be 0bcc d43e 77bf e93e b44e 9b3d
00000390: 9b49 083f 25ab 08be 2ba9 d73e 47bb 70bf
000003a0: 8504 27bf 7876 a5be 71e9 0bc0 e527 4c3e
000003b0: 8641 b93d 69e8 e33d 42db 46be 441b 94bf
000003c0: a195 153e c8cb 4bbf f378 23bf 6da9 023e
000003d0: 173c b5bf a36e 7dbf 0f3d 33bf 40f6 8abf
000003e0: c5ae 84bf 3afa a8bf c1d4 b0bc fd10 f8bf
000003f0: d5b6 da3e 6c5a 86be 1645 3fbf ccf3 2d3e
-0.5367321 -0.9044087 -0.87099487 -0.6047207 0.034774985 0.018057773 -0.045161914 -2.9867196
0.42383277 0.05095542 -1.1760854 -1.6977638 -0.19804622 -0.47804764 -0.1817104 0.3393003
0.031733308 0.06970564 0.036213923 0.08858424 0.06863591 0.016732855 0.11020932 0.07677794
0.08669013 -0.115420535 0.10804399 0.0769549 -0.064438246 0.02347394 0.070959054 0.08138645
-1.3839747 -0.25166735 -0.16145279 -0.56699264 0.13293725 -1.692804 0.25755808 -0.09425146
0.7697866 0.20439574 0.727131 -0.5878466 -0.008386885 1.8158578 2.0097878 -1.1657187
-0.35884687 -0.47176763 -1.506894 -1.1951789 0.42036787 -0.120457545 0.41924775 -0.12301809
0.01549603 0.2215749 0.8439048 1.017558 -0.32199705 0.3530645 -0.108946934 -0.8401128
0.031597603 0.18892473 -1.0285331 -0.28978592 -0.50630033 -0.3995856 0.88236684 0.27794367
-0.21258767 0.09056018 -0.10152089 -0.219284 0.103932746 0.05863263 -0.5251705 -0.114378795
0.29293174 0.23831803 -0.39169726 0.87459826 1.1424176 -0.29818833 0.4461706 0.68639535
-0.017101565 -0.22485393 -0.15182425 0.12920044 0.45459822 0.19948722 0.8867727 -0.61589015
-1.112429 -0.7484171 0.07236394 -0.30912393 -0.32399997 -0.12022132 -0.52028143 0.2362385
0.24812593 0.8517862 -0.02086321 -0.7802422 0.02665479 0.09616302 0.72198987 0.33678538
-0.101499505 -0.20165363 -0.82971877 -0.34068727 -0.036093086 0.23960313 0.7142321 0.91951305
0.27606648 -0.13284783 -1.2574695 0.34362215 0.72038716 -0.05592523 0.42175135 -0.34244063
0.3463645 -0.5511592 -0.5927146 -0.41490108 -0.92337394 -0.23672843 -0.30641213 -0.12927243
0.5657768 0.9257095 -0.4040432 0.11535448 0.78064126 0.6460466 -1.1974566 -0.37766248
0.050435293 0.05103792 0.06997589 0.07219017 -0.04950982 -0.04282345 0.23664238 0.35082176
-0.031704184 -0.00532208 -0.2183486 -0.06459359 0.07485758 0.05829152 0.06796406 0.08431948
-0.040140778 -0.3042133 -0.07285328 0.27538994 0.1942443 0.2698995 0.594556 0.31200835
0.19639595 -0.9651563 -0.19669259 -0.29078075 -0.12488039 -0.9242986 -0.7631869 -0.8851408
-0.5893419 -0.13251792 -0.6250361 -0.37926367 -0.80491716 -0.058827095 -0.773301 -0.6506239
0.3024751 0.6106895 -0.76828897 -0.21794462 0.31956428 -0.22636662 1.0460192 0.8742894
0.13132462 0.005796197 0.005639895 -0.037340924 -0.061752472 0.025480244 -0.03960944 -0.04462034
-0.07914811 -0.094793834 -0.00029704734 -0.06381609 -0.04174919 -0.033733487 -0.022790775 -0.029495021
0.29791898 0.68079597 0.15919736 0.09443219 -1.0764792 -0.12426818 -0.10685951 -1.9113333
-1.0102811 0.2685517 1.1105412 -1.007849 -0.996167 -0.15956517 -0.9586069 -0.03283088
-0.24400811 0.41561922 0.4565389 0.07583371 0.53237313 -0.13346536 0.42121252 -0.9403576
-0.6524127 -0.32316947 -2.1861231 0.19937094 0.09045701 0.11128313 -0.19419578 -1.1570821
0.1460786 -0.7960782 -0.6385643 0.12759943 -1.4158963 -0.98996943 -0.70015043 -1.08564
-1.0365835 -1.3201363 -0.021585824 -1.9380184 0.42717615 -0.2624086 -0.7471479 0.16987532

fc1.bias f4 [50]
00000000: 1c11 db3e 3150 0e3f 13e8 9b3e 0d1f 1a3e
00000010: ac1d dc3d 0096 5bbd c42d 80bd f16c a33e
00000020: b6ab d6bf cdbd 483e c4bc f4bc ea44 1bbe
00000030: c990 69bf 4008 92be aba4 943d 1cd6 433e
00000040: 269a fdbe 1efb a2bf 4283 b43e 2f39 5e3e
00000050: 4678 bb3c 06fa 25bf 02b2 57bd 6252 f0be
00000060: 3e66 2dbf d27d 93bf 842a 64be c07a 043f
00000070: 4482 913d c276 b3bf 29a4 4bbe 73ad a6bf
00000080: a77d f73e 71e1 1d3f 7768 d53e 95a3 acbf
00000090: 48ef 773d 07c3 5bbe c798 d7be a1e9 b53e
000000a0: 5ed6 943e 29e9 adbe a25c dc3e f03c c93d
000000b0: 0ec6 b23e 32c3 dabc fc5a a6be ba98 003f
000000c0: ef27 1dbf 16f9 25bf
0.4278649 0.5559111 0.30450496 0.15050907 0.10747847 -0.053609848 -0.06258729 0.31919053
-1.6771152 0.19603653 -0.029875167 -0.15163007 -0.9123655 -0.2852192 0.072579704 0.19124645
-0.49531668 -1.2732885 0.35256392 0.21701501 0.0228845 -0.6483463 -0.052659996 -0.46937853
-0.67734134 -1.1522772 -0.22281843 0.517498 0.07104924 -1.4020617 -0.19886841 -1.3021683
0.48338053 0.6167212 0.41681263 -1.3487421 0.06053093 -0.21461116 -0.42108747 0.35529807
0.290698 -0.3396695 0.43039423 0.09826076 0.3491673 -0.026704405 -0.3249129 0.5023304
-0.6138906 -0.648332

fc2.weight f4 [10, 50]
00000000: a036 763e 5a9d 16be 480f 8ebe c53b e6be
00000010: 28a8 9abe 2e39 68be 0582 12be 4b5b 45be
00000020: 456c f8bd 4a0a c0be 91d3 adbc 5263 f4bd
00000030: f877 403e bbbd 6dbe 2aa7 7c3e 415f 743e
00000040: a40c 1f3e 00ee 06be 4c2f 313e 8266 16be
00000050: 2225 87be 453f 2bbe 8a6f b8be a062 a6be
00000060: 9666 6ebe 1f19 75bd 6a88 bfbe 3c56 10bf
00000070: c20c e53d d349 c43c 1612 21be 353f a23d
00000080: 4a1a 0abe d2b1 dbbe 9d08 86be 5361 bd3c
00000090: b120 8abe 16e0 c13d d66e ba3c bc75 8ebd
000000a0: 6037 56be 39e8 86bd 29cf 713e 9fd3 debe
000000b0: aa1f 8abe 9667 633e b869 aabe 3b52 47be
000000c0: a6ce 8c3e 84f3 053e 438c 8dbd d44c f43d
000000d0: 3078 debd 1796 9dbe 2d18 6dbe 98c7 2f3e
000000e0: 26b4 a6be c7c6 0a3e 6c76 97bd 0078 cdbd
000000f0: b2d3 523e ecdf d3bc 9a78 6ebe 3cfe 6cbe
00000100: a894 30be 0656 8abe d1ce 0dbe d17b 633c
00000110: e7ed 48be fbd9 66be cadf 2fbe 18e0 c3bd
00000120: 173a 4abe 824c 233e 1929 633d 231e 59be
00000130: 13c3 98be d38f 313e 9684 dabd 5ebd 5ebe
00000140: c173 6c3e 4359 19be 821d 2c3d 4a35 b3be
00000150: e4f4 223d c6cd 80bd a3a8 9bbe 7e4a c6be
00000160: 0c2f 53be 6ce3 483e f119 58be 343d 773c
00000170: 1bb9 2abe 156a 58be 855b 8ebd 7ca7 3abe
00000180: 6a4c dbbe 113c 173e fa35 d7be b05d a4bd
00000190: 0629 8c3d b01c 25bd 273c 123d ec20 123c
000001a0: 51c8 87bd 6403 f9bd c812 efbd ed55 f23d
000001b0: 3c23 a83d f6a5 36bd 8607 b73d 7cfe 8a3e
000001c0: 382b 263e 877a 1cbd e96b 6fbd 1eb0 56bc
000001d0: eae3 9b3c a711 33be 8b86 95be 5f34 81bd
000001e0: 403d 463d 6ef9 343e 9249 0fbe 5218 d83d
000001f0: e9ce 6abe f8b9 85bd 826d 2ebe 2cf7 41bd
00000200: 8fdb 343c d85a 1ebc 4eb2 163d e6a1 5c3d
00000210: 2157 7f3e 5098 fdbd f4a3 193e ae6c 0ebc
00000220: eb98 36bd dbb9 013d 63b7 193e 2079 f33c
00000230: c8a4 15be c686 433e 2a9e b3be 37cc 183d
00000240: edfd 8e3c ca52 8d3d b803 d8be 31d8 a6bc
00000250: 4746 9a3d d58f 563e 121c 94bd 3d21 4cbe
00000260: 687e 593e ae78 0f3e 90dc 73bd c1bb 38be
00000270: 5736 36bd 3215 e93d 66e2 57bd 184c 4cbe
00000280: 64dc 32be f724 453e c025 89bd a842 70bd
00000290: 15ba 10be 0c87 4b3e e3c8 96bd 721c debd
000002a0: 38b3 b83c 9c8b e03d 30b3 f13d 5271 373e
000002b0: 35f1 11be 8d1a 4ebe d131 53be 1ad1 10be
000002c0: 0208 0c3e ae72 463c 2a31 19be 1faa 97bd
000002d0: 9f8a 5abe 10a7 1abe 454c a13c 4203 4a3d
000002e0: 33c2 203e 7c2d 5fbc f4c2 c73d 1e5d 37be
000002f0: abe1 0bbc 7da2 263e 3a06 303e 3b88 4e3e
00000300: e41f e4bd 1c46 debd e9a4 183e 3495 59bb
00000310: c50c bdbd 6a55 4cbc c028 3abe 3667 62b9
00000320: 420d 01bd 9848 873d c302 b53d 28cb 2d3e
00000330: ee9a 85bd acbb 6b3e 0130 e4bc 4bad 13be
00000340: 269c 0dba 7f42 91be 1743 423e c8d4 c43d
00000350: 344d e4bd 2744 afbc 1217 46be 3830 36bd
00000360: 63d3 adbe f471 83bd e488 93be aaa5 9fbe
00000370: 4a79 a3bc 79b2 b2bd 9616 f43d 2e7b 953e
00000380: 7578 1f3e 3673 0f3e 496d 84bd 7b94 6abc
00000390: b3c8 8a3d 6345 9c3b cd4e b6bd 60f1 5b3c
000003a0: 247f 83bd f5d8 093d d79b 37be 135d 00bd
000003b0: 0223 6ebd cd97 813e 4084 213e 4455 08be
000003c0: 9e23 e4bd 4c1e 7cbe 3916 b1bd 5d35 293e
000003d0: 7ade 903d e56a 33be d678 7fbe dcd3 c0bc
000003e0: 82fb 6b3e 4fe7 06bc 1e66 493d 5460 1cbd
000003f0: f125 693d 721c 91bd b5c2 263e 05a7 b9bd
0.24044275 -0.14708462 -0.27746034 -0.44967476 -0.30206418 -0.22678062 -0.14307411 -0.19273107
-0.12130026 -0.3750785 -0.021219047 -0.11933006 0.18795764 -0.23216908 0.24673143 0.23864461
0.15532166 -0.13176727 0.17303199 -0.14687541 -0.26395518 -0.16723354 -0.36022598 -0.3249712
-0.23281321 -0.05983841 -0.37408763 -0.56381583 0.11184074 0.023960983 -0.15729555 0.07922212
-0.13486591 -0.42909104 -0.26178446 0.023117697 -0.26978067 0.09466569 0.022757929 -0.0695605
-0.20919561 -0.06587262 0.23614182 -0.4352083 -0.26977283 0.22207484 -0.33283782 -0.19464962
0.2750141 0.13081175 -0.069115184 0.11928716 -0.10862768 -0.30778572 -0.23153754 0.17165983
-0.32559317 0.1355239 -0.07395634 -0.10032654 0.20588568 -0.02586361 -0.23288193 -0.23143858
-0.17244208 -0.27018756 -0.13848425 0.013884501 -0.19622003 -0.2254409 -0.17175213 -0.09564227
-0.19748722 0.15947154 0.055459116 -0.21202902 -0.2983633 0.17340021 -0.1066982 -0.21751925
0.23091032 -0.14975457 0.04202033 -0.35001594 0.039784327 -0.06289248 -0.30402097 -0.38728708
-0.20623416 0.19618005 -0.21103646 0.015090276 -0.16672175 -0.21134217 -0.0695105 -0.18227953
-0.42831737 0.14769007 -0.42033368 -0.08025682 0.06843762 -0.04031056 0.035701897 0.008918982
-0.06630004 -0.1215885 -0.11673504 0.11832795 0.082098454 -0.044591866 0.08936982 0.2714728
0.16227424 -0.03820279 -0.05845252 -0.013103513 0.019029576 -0.17487203 -0.2920421 -0.06308817
0.048398256 0.17673275 -0.13992909 0.10551514 -0.22930492 -0.06529611 -0.17033961 -0.047354862
0.011038675 -0.0096652135 0.03679114 0.053865336 0.24935581 -0.12382567 0.1500395 -0.008692903
-0.044579428 0.031671386 0.15011363 0.029720843 -0.1461364 0.1909438 -0.35081607 0.03730413
0.017455066 0.069005564 -0.42190337 -0.02036676 0.075329356 0.20953305 -0.072319165 -0.19934554
0.21239626 0.1401088 -0.059536517 -0.18040372 -0.044485416 0.11380996 -0.052706145 -0.19950902
-0.17466885 0.19252382 -0.06696653 -0.05865732 -0.14133485 0.19875735 -0.07362535 -0.10845269
0.022546396 0.109641284 0.118017554 0.17914322 -0.1425217 -0.20127316 -0.20624472 -0.14142266
0.1367493 0.012112303 -0.14960161 -0.07405495 -0.21341942 -0.15102792 0.019689688 0.049319513
0.15699081 -0.013621684 0.09753981 -0.17906615 -0.00853769 0.16272922 0.17189875 0.20169155
-0.11138895 -0.10853216 0.14906658 -0.0033200504 -0.09230951 -0.012471536 -0.18179607 -0.00021591489
-0.031506784 0.06605643 0.088384174 0.16972029 -0.06523691 0.2302081 -0.027854921 -0.14421575
-0.0005401991 -0.28371045 0.18970905 0.09610897 -0.11147538 -0.021394802 -0.19344738 -0.04447958
-0.33950338 -0.06418219 -0.28815377 -0.3118108 -0.019955296 -0.08725447 0.119183704 0.2919554
0.15573294 0.14008793 -0.06466157 -0.014317627 0.067765616 0.0047690137 -0.08901749 0.0134242475
-0.064207345 0.033654172 -0.17930542 -0.031338762 -0.058138855 0.25311127 0.15773106 -0.13313776
-0.11139606 -0.24620932 -0.08646817 0.16524263 0.07073684 -0.17521246 -0.24948439 -0.023538522
0.23045161 -0.008233859 0.049169652 -0.038177803 0.05692095 -0.07085504 0.16285212 -0.090650596

fc2.bias f4 [10]
00000000: 6883 283f a721 503e 16f0 f43c a28e 07bf
00000010: 4ae5 bcbe c493 e8be 421a 9bbe 03e5 04bf
00000020: 5c71 0d3f 2bbb c23e
0.6582551 0.20325337 0.029899638 -0.52952015 -0.36893684 -0.45425236 -0.3029347 -0.51911944
0.552511 0.38033423
